my_dqn_temp.pt (torch_old, 698221 bytes, 40 tensors)

feature_extractor.0.0.weight f4 [3]
00000000: fa2b 19c1 e0d2 3d41 5d9f 3b41
-9.573236 11.863983 11.726407

feature_extractor.0.0.bias f4 [3]
00000000: 31e9 2d41 0d19 2ac1 f4fa 27c1
10.8694315 -10.631116 -10.498768

feature_extractor.0.0.running_mean f4 [3]
00000000: 7d3b 1a3f fe16 063f 5a5e c93e
0.6024702 0.52378833 0.39329797

feature_extractor.0.0.running_var f4 [3]
00000000: 3b81 4c3d fb34 2a3d 368a d63c
0.04992793 0.041554432 0.026188951

feature_extractor.0.1.weight f4 [16, 3, 3, 3]
00000000: f65a 2e41 e613 2e41 17dd 2d41 f785 3241
00000010: 3346 2e41 0440 2d41 62cf 2c41 4cec 3041
00000020: eb4c 2f41 d2a2 2f41 c007 2e41 38ea 2e41
00000030: d47c 2f41 9e43 2f41 33ba 2c41 25cb 2c41
00000040: daf0 3241 8b06 2e41 c72a 2f41 ce9b 2e41
00000050: 4354 2941 846f 3041 6d57 3041 e4db 2f41
00000060: 9976 2f41 d08a 3141 96f2 3041 9cb8 29c1
00000070: cbbe 29c1 5690 29c1 7fd8 2b41 1136 2941
00000080: e487 2441 2bc8 2c41 d920 2f41 44e4 2b41
00000090: 9285 2d41 09c5 2c41 2646 2141 42c1 2f41
000000a0: f60e 3041 a11e 2f41 63bb 3141 6a4e 2e41
000000b0: 3049 3341 542b 3041 abad 2b41 f76f 20c1
000000c0: 2eea 3041 c2b7 3241 6f27 3041 14de 3141
000000d0: 72a1 3141 4edb 3141 ce0f 2d41 38ad 2c41
000000e0: 2491 2e41 54c2 3041 2a64 3141 2f90 2d41
000000f0: 9d2d 2f41 c73e 3141 107c 3141 3e28 2e41
00000100: e150 2e41 5749 2c41 edd0 3141 0c86 2c41
00000110: f622 2d41 4c82 2f41 89f5 2f41 aa22 2f41
00000120: 011d 2f41 6d3b 2d41 e456 2b41 60c2 3041
00000130: 117a 2d41 0ea4 2e41 04f8 2b41 3422 2e41
00000140: b2c7 3041 dfef 2bc1 6832 2fc1 e2ac 2dc1
00000150: 8303 2dc1 34f9 2bc1 15a9 2fc1 7260 2ec1
00000160: 94a0 30c1 a10f 2dc1 fc95 2dc1 1bca 2cc1
00000170: ddcb 2ec1 16d1 30c1 4b42 30c1 091b 31c1
00000180: 929b 31c1 a611 30c1 b48b 30c1 f858 2ec1
00000190: bb3a 30c1 67db 2fc1 7038 2dc1 14ca 31c1
000001a0: 36fb 31c1 ba1b 31c1 9d31 2fc1 3e16 32c1
000001b0: 706b 31c1 f1d1 30c1 47fd 2dc1 e220 2ec1
000001c0: 7c10 2cc1 fc31 30c1 fe2f 2cc1 ab69 31c1
000001d0: f9f1 2dc1 b5a3 2fc1 19eb 2dc1 e54f 30c1
000001e0: 5cd7 2cc1 7b36 2cc1 85e9 30c1 bdfb 2dc1
000001f0: d3cf 31c1 d3a1 2ec1 04ca 2ec1 8451 30c1
00000200: 0502 2fc1 c714 2ec1 f610 30c1 a3e8 31c1
00000210: 3894 2fc1 e730 32c1 4620 30c1 5b01 2dc1
00000220: c407 30c1 426f 2ec1 6d2e 26c1 2359 2ec1
00000230: 214f 2741 d9e6 2cc1 0f1a 2cc1 a8e8 2cc1
00000240: 1206 2ac1 30cb 31c1 d7ea 31c1 9ad9 2b41
00000250: ef16 2841 65c9 2b41 a7f5 2fc1 d748 31c1
00000260: 4c7b 2ec1 287d 2ec1 518a 2ec1 f89d 2ec1
00000270: 4179 2741 913a 2941 fe0d 2d41 64a6 32c1
00000280: dfec 30c1 085d 30c1 ed75 2a41 03a0 3141
00000290: d0c5 3241 b83d 3041 eedf 2d41 e3f0 2a41
000002a0: e805 2e41 a441 2d41 0ac8 2f41 ddb9 2d41
000002b0: 14bb 2f41 d242 3041 aadf 2d41 f961 2c41
000002c0: 2922 2f41 5786 2d41 5b52 2f41 73a4 2c41
000002d0: 1988 2d41 0584 3041 3bbf 3141 2dd8 3341
000002e0: d65d 3141 ee62 3441 6630 3341 7d27 3141
000002f0: 0336 3441 6427 31c1 c9d3 31c1 217e 32c1
00000300: 12d7 20c1 4f35 f3c0 7c4a 31c1 d4ce 2241
00000310: 5b3d 2e41 de0e 26c1 f7e0 2ec1 1ab8 33c1
00000320: a016 34c1 14f6 26c1 953d 21c1 76a1 31c1
00000330: 48f5 16c1 f884 2141 212e 27c1 1630 35c1
00000340: a396 32c1 6be6 31c1 fb6a 29c1 5ac2 29c1
00000350: d1b1 32c1 15df 28c1 22ac 25c1 5b21 2bc1
00000360: 31cd 2e41 63d2 2d41 aba3 3241 3b63 2f41
00000370: 516a 3141 cabc 3141 342e 3041 6249 2f41
00000380: e70b 2c41 e11e 2d41 8b55 2f41 ce82 2f41
00000390: 3c42 2f41 f4cd 3141 5acc 2c41 c30b 22c1
000003a0: 2eca 1e41 26fa 2541 7ba5 3241 f8b2 3041
000003b0: 38fd 2d41 4289 2e41 b02a 2f41 f24e 3041
000003c0: 579b 2841 1635 3041 356c 2a41 9a00 3141
000003d0: 567c 2c41 32f5 27c1 6425 2f41 79e9 3041
000003e0: 3762 2e41 5b77 2c41 9a77 2c41 b459 2e41
000003f0: 16aa 3041 8682 3141 4753 3141 bb9f 2c41
10.897207 10.879858 10.866477 11.157706 10.8921385 10.828129 10.800631 11.05769
10.956279 10.977251 10.876892 10.932182 10.967976 10.954008 10.795459 10.799596
11.183802 10.876597 10.947944 10.913038 10.583072 11.0272255 11.021344 10.991184
10.9664545 11.09639 11.059225 -10.607571 -10.60908 -10.597738 10.7403555 10.5757
10.283176 10.798869 10.945519 10.743229 10.84511 10.798104 10.079626 10.984682
11.003653 10.944978 11.108249 10.894144 11.205368 11.010578 10.729899 -10.027335
11.057173 11.169863 11.009627 11.116718 11.101915 11.116041 10.816359 10.79229
10.910435 11.047443 11.086954 10.847701 10.948636 11.0778265 11.092789 10.884825
10.894746 10.767905 11.113507 10.782726 10.821035 10.969311 10.997445 10.945963
10.944581 10.827008 10.708714 11.047455 10.842301 10.915052 10.748051 10.88335
11.048754 -10.746062 -10.949806 -10.854708 -10.813357 -10.748341 -10.97878 -10.898546
-11.039204 -10.816316 -10.849117 -10.799342 -10.924771 -11.051046 -11.016185 -11.0691
-11.100481 -11.004309 -11.034107 -10.896721 -11.0143385 -10.991065 -10.826279 -11.1118355
-11.123831 -11.069269 -10.949613 -11.13043 -11.08873 -11.051255 -10.874335 -10.883028
-10.7540245 -11.012203 -10.761717 -11.088298 -10.871575 -10.977468 -10.869897 -11.0195055
-10.802578 -10.763301 -11.057012 -10.87396 -11.113238 -10.914508 -10.92432 -11.019901
-10.937993 -10.880073 -11.004141 -11.119296 -10.973686 -11.136939 -11.007879 -10.812831
-11.001896 -10.902163 -10.386334 -10.896762 10.456819 -10.806359 -10.756362 -10.806801
-10.626482 -11.112106 -11.119834 10.740625 10.505599 10.736669 -10.997474 -11.080283
-10.905102 -10.905556 -10.908769 -10.913567 10.467103 10.576798 10.815916 -11.165623
-11.05783 -11.022713 10.65379 11.101565 11.173294 11.015068 10.86717 10.68381
10.876442 10.828526 10.986338 10.857877 10.983173 11.016314 10.8671055 10.773919
10.94584 10.845298 10.957606 10.790149 10.845727 11.032231 11.109187 11.240277
11.085409 11.274153 11.199316 11.072141 11.263186 -11.072117 -11.114205 -11.155793
-10.052507 -7.6002574 -11.080685 10.175495 10.889979 -10.37863 -10.929923 -11.232447
-11.255524 -10.435078 -10.077535 -11.101919 -9.434883 10.094963 -10.448762 -11.32424
-11.161777 -11.118754 -10.588618 -10.609949 -11.168412 -10.554463 -10.354525 -10.695643
10.925096 10.863864 11.164958 10.961726 11.088456 11.108591 11.01128 10.955416
10.752906 10.820039 10.9583845 10.969435 10.9536705 11.112782 10.7998905 -10.1278715
9.92436 10.373571 11.1654005 11.043694 10.874321 10.90851 10.947922 11.019274
10.537925 11.01296 10.651418 11.062647 10.780355 -10.497362 10.946629 11.057
10.898978 10.7791395 10.7792 10.8969 11.041525 11.094366 11.082831 10.788997

feature_extractor.0.1.bias f4 [16]
00000000: e818 e4c0 101b 4cc0 b2f6 0ac1 5536 1fc1
00000010: ede5 0641 2f22 2b40 e54c ddc0 8b5b 72c0
00000020: c307 26c1 04ba fe40 67f6 f940 bbbf 0f41
00000030: 99d8 1bc1 09fb f7c0 0374 c7c0 36a3 0d41
-7.1280403 -3.1891518 -8.685228 -9.950765 8.431134 2.6739614 -6.9156365 -3.7868373
-10.376895 7.960207 7.8113284 8.984309 -9.74038 -7.749394 -6.2329116 8.852346

feature_extractor.0.2.weight f4 [16]
00000000: 5f60 3f41 0410 1ec1 c511 3f41 c576 24c1
00000010: f836 21c1 2871 21c1 f7e4 21c1 9511 4441
00000020: 29cb 25c1 2763 22c1 6757 21c1 6bb0 20c1
00000030: db78 4241 a7d4 1bc1 e059 1ac1 67f1 21c1
11.961028 -9.87891 11.941838 -10.278996 -10.07592 -10.090126 -10.1184 12.2542925
-10.3621 -10.149207 -10.083838 -10.043071 12.154506 -9.739417 -9.646942 -10.121436

feature_extractor.0.2.bias f4 [16]
00000000: 4a67 2041 dda5 31c1 5c97 27c1 88e3 3141
00000010: df30 32c1 0b4f 31c1 030b 1ec1 ae2e 1ec1
00000020: 95a5 2fc1 64c2 34c1 acce 31c1 be7c 2ac1
00000030: 8265 1441 dae3 35c1 9765 3741 c162 32c1
10.025217 -11.102994 -10.474453 11.11805 -11.136931 -11.081798 -9.877688 -9.886396
-10.977925 -11.297459 -11.112957 -10.655455 9.274782 -11.368128 11.462302 -11.14911

feature_extractor.0.2.running_mean f4 [16]
00000000: ea6a 7dc4 942c bcc4 fedd 7ac4 b914 7d44
00000010: 64b8 7e44 e911 d8c2 786e 80c4 fc4b 9c44
00000020: e512 40c4 e9db 9ac4 9881 4644 e0a6 77c4
00000030: ddb8 b7c4 8a58 d7c4 1e8c 7c44 5857 8044
-1013.67053 -1505.3931 -1003.4686 1012.3238 1018.8811 -108.03498 -1027.4521 1250.3745
-768.2952 -1238.8722 794.0249 -990.6074 -1469.777 -1722.7668 1010.18933 1026.7295

feature_extractor.0.2.running_var f4 [16]
00000000: ecbb e949 de89 384a 2bb3 e549 b70c ef49
00000010: 6a3b eb49 fa42 3647 4ed2 ee49 af16 0d4a
00000020: d583 9949 820e 194a 4926 8f49 24b6 e749
00000030: 4401 3d4a 0d4e 604a e8ff 8249 37ce d749
1.9147495e+06 3.0234795e+06 1.8817014e+06 1.9582949e+06 1.9270212e+06 46658.977 1.9564258e+06 2.3115958e+06
1.2575946e+06 2.5076805e+06 1.1726811e+06 1.8981805e+06 3.096657e+06 3.6750112e+06 1.073149e+06 1.7678789e+06

feature_extractor.1.0.weight f4 [16, 16, 3, 3]
00000000: d2a9 2ec1 4463 2dc1 0431 2fc1 4a14 2dc1
00000010: 240e 2dc1 5906 2ec1 6424 2dc1 4fad 2dc1
00000020: 632c 2fc1 3af8 2d41 8e68 2f41 d37d 2e41
00000030: 6469 2f41 fab7 2f41 25a5 2f41 d151 2e41
00000040: 87bf 2f41 09bc 2d41 f56b 2dc1 61fc 2dc1
00000050: 6ba9 2ec1 47d2 2dc1 2676 2ec1 668c 2ec1
00000060: 8065 2ec1 34bc 2dc1 ec3f 2041 f8ed 30c1
00000070: 66ee 2fc1 8a36 31c1 e25a 2fc1 239d 2fc1
00000080: 439f 2ec1 9f67 2fc1 7347 2fc1 9fb5 30c1
00000090: 4ba5 2fc1 b230 2ec1 7b48 30c1 9b62 2fc1
000000a0: 3990 2fc1 bc2a 30c1 a738 2fc1 4fe0 2dc1
000000b0: 9711 2fc1 2f5d 30c1 8de8 2ec1 338d 2ec1
000000c0: 548a 2ec1 6b1e 2ec1 2247 2ec1 bc4e 2fc1
000000d0: 1577 30c1 6722 2fc1 8d0d 3041 7eb1 2f41
000000e0: 2144 2f41 7abb 2e41 1b50 2f41 67bc 2f41
000000f0: 83b9 3041 2fd2 3041 3f0d 3141 900e 31c1
00000100: 8d3b 2fc1 0584 2ec1 9875 31c1 ae2f 2fc1
00000110: 21aa 30c1 9d39 2fc1 9158 31c1 a7d9 31c1
00000120: 8131 2ec1 0861 2fc1 8979 2ec1 8118 2fc1
00000130: ace3 2fc1 3c72 2fc1 597f 2ec1 f827 2ec1
00000140: 6903 30c1 db38 2f41 2cb3 2f41 6574 3041
00000150: 3861 2f41 9d2f 2e41 6627 3041 4549 3041
00000160: 35fb 2e41 b09e 2d41 2b39 2fc1 77ae 2ec1
00000170: 11e9 2dc1 9392 2ec1 b6f6 2dc1 e9a1 2fc1
00000180: 97a4 2fc1 4f6b 30c1 11ca 2ec1 4d40 30c1
00000190: 5cef 2fc1 d8dc 2dc1 8362 2ec1 3bd2 2ec1
000001a0: 89a9 2dc1 eb7c 2ec1 73f9 2fc1 7e5a 2e41
000001b0: bc3e 2fc1 b63f 2fc1 3571 30c1 f5fd 2ec1
000001c0: cc6b 2ec1 fac2 2dc1 7d73 2dc1 64ca 2ec1
000001d0: 4944 2ec1 aff1 2dc1 c90c 2fc1 e07d 2fc1
000001e0: a4d1 2fc1 f5b0 2dc1 75a6 2ec1 9a2e 2ec1
000001f0: 395e 2fc1 0c8f 2dc1 675e 2fc1 e970 30c1
00000200: 73e5 2ec1 9040 30c1 0a8a 2fc1 19b8 2fc1
00000210: 72b9 2fc1 265f 30c1 6ffa 30c1 4642 2ec1
00000220: a62a 2fc1 6360 2ec1 9d07 2ec1 8a22 2ec1
00000230: 835a 2ec1 96a6 2ec1 d462 30c1 f299 2ec1
00000240: dd00 2ec1 cbe7 2541 651a 2cc1 c4fe 2dc1
00000250: abc7 2ec1 645d 2ec1 6479 2ec1 140d 2ec1
00000260: ad52 1bc1 e1ba 2ec1 869e 2841 73d9 2f41
00000270: 24e8 2fc1 73e2 2941 c143 2e41 3967 2ec1
00000280: 10bf 24c1 1c44 2d41 f1df 2ec1 6304 2e41
00000290: 3161 2fc1 59e0 2fc1 6c9c 2e41 5bd6 2fc1
000002a0: dedf 2fc1 e8ca 2bc1 8f7d 2e41 ef38 2ec1
000002b0: 2ade 2dc1 28b7 2fc1 d5b4 2ec1 26a6 2dc1
000002c0: 8951 2f41 0da1 2fc1 e5ab 1f41 2598 2f41
000002d0: c938 2fc1 3906 30c1 e029 2fc1 7795 2ec1
000002e0: f9a7 2ec1 c344 2a41 360b 2ec1 9474 2ec1
000002f0: 2561 2c41 1aa9 2c41 1b2f 26c1 9592 2ac1
00000300: 69c6 2ec1 e0ab 2fc1 d19b 2841 8985 2a41
00000310: 7279 2b41 f3ee 2d41 974a 2ec1 089d 2e41
00000320: 8011 2e41 14e4 2fc1 5bc0 2dc1 6063 2d41
00000330: 9920 2fc1 4eda 2fc1 8353 2d41 e521 29c1
00000340: 5ca3 3041 4111 3241 eb97 2fc1 2855 30c1
00000350: 1a72 30c1 8e7e 2ec1 5053 2fc1 c612 2dc1
00000360: ef93 2ec1 e844 2fc1 3e12 2fc1 ef33 2fc1
00000370: 3ef5 2fc1 0d2f 2ec1 3024 30c1 d21f 2fc1
00000380: 88e9 2fc1 788d 2d41 cb8e 2f41 b092 2f41
00000390: 27b6 2ec1 38ce 2f41 05ac 2e41 091f 30c1
000003a0: 3d82 2d41 2a8c 2d41 0010 2741 64a1 2dc1
000003b0: be92 2dc1 be66 2d41 c797 2dc1 1dc0 2ec1
000003c0: be4f 2e41 0c31 2ac1 80c3 2bc1 3caf 2ec1
000003d0: 7914 2d41 b1d7 2cc1 f71b 30c1 f865 2fc1
000003e0: d4f8 2ec1 1c43 2fc1 625f 28c1 5818 2941
000003f0: 6af7 2dc1 e703 2ec1 7426 30c1 2582 2ec1
-10.91646 -10.836735 -10.949467 -10.817453 -10.815952 -10.87655 -10.821384 -10.854812
-10.948337 10.873102 10.963026 10.905719 10.96323 10.982416 10.9778185 10.894975
10.98426 10.858407 -10.838857 -10.874116 -10.916362 -10.863837 -10.903845 -10.909277
-10.89978 -10.858448 10.015606 -11.058098 -10.995703 -11.075815 -10.959688 -10.975863
-10.913882 -10.962798 -10.954944 -11.044341 -10.977855 -10.8868885 -11.017695 -10.961574
-10.972711 -11.010433 -10.951331 -10.867263 -10.941794 -11.02275 -10.931775 -10.909472
-10.9087715 -10.882426 -10.892366 -10.956722 -11.029073 -10.945899 11.003308 10.980833
10.954133 10.920771 10.957057 10.983497 11.045291 11.051314 11.065734 -11.066055
-10.952039 -10.907231 -11.091209 -10.949141 -11.041535 -10.951566 -11.084123 -11.115638
-10.887086 -10.961189 -10.904672 -10.943482 -10.993084 -10.965389 -10.906091 -10.884758
-11.000833 10.951381 10.981243 11.028417 10.961235 10.886624 11.009619 11.017888
10.93633 10.851242 -10.951457 -10.917594 -10.869401 -10.910785 -10.872732 -10.977029
-10.977683 -11.026198 -10.924333 -11.015698 -10.995937 -10.866417 -10.899051 -10.926326
-10.85389 -10.905498 -10.998401 10.897093 -10.952816 -10.953054 -11.027638 -10.937001
-10.901318 -10.860102 -10.840695 -10.924412 -10.891671 -10.871505 -10.940621 -10.968231
-10.988682 -10.855702 -10.915639 -10.886377 -10.960504 -10.847424 -10.960547 -11.027566
-10.931018 -11.015762 -10.971201 -10.982446 -10.982775 -11.02323 -11.061141 -10.89118
-10.947912 -10.898532 -10.876859 -10.883432 -10.897098 -10.91567 -11.024128 -10.912584
-10.875211 10.36909 -10.756444 -10.874699 -10.923747 -10.8978 -10.904636 -10.878193
-9.7076845 -10.920625 10.538702 10.990588 -10.994175 10.617785 10.8915415 -10.900201
-10.296646 10.829128 -10.929673 10.876071 -10.961228 -10.992272 10.913189 -10.989833
-10.992155 -10.737038 10.905654 -10.8889 -10.866739 -10.982216 -10.919148 -10.853064
10.957406 -10.976819 9.979466 10.974645 -10.951364 -11.001519 -10.947723 -10.91149
-10.916009 10.641788 -10.877737 -10.903461 10.773717 10.791285 -10.3865 -10.660787
-10.92344 -10.979462 10.538041 10.657601 10.71715 10.870837 -10.89321 10.913338
10.879272 -10.993183 -10.859462 10.836761 -10.945458 -10.990797 10.832889 -10.570775
11.039883 11.129212 -10.974589 -11.02079 -11.027857 -10.905897 -10.95784 -10.817083
-10.911117 -10.954323 -10.941954 -10.950179 -10.997374 -10.886487 -11.008835 -10.945269
-10.994514 10.847038 10.972362 10.973312 -10.919471 10.987846 10.916997 -11.007577
10.844296 10.84672 10.441406 -10.851902 -10.848326 10.837584 -10.849555 -10.921903
10.894468 -10.636974 -10.7352295 -10.917782 10.817498 -10.802659 -11.006827 -10.962395
-10.935749 -10.953884 -10.523287 10.568443 -10.872904 -10.875953 -11.009388 -10.906774

feature_extractor.1.0.bias f4 [16]
00000000: d131 c8c0 bf49 9140 efc4 edc0 213d 0841
00000010: 8fd0 d340 a6e3 d6c0 4a20 e2c0 a474 c540
00000020: 9a4f a440 7a07 8840 6b78 0d41 969f 4740
00000030: 53ad cb40 eb0a f040 2db6 7cc0 b6b0 9a40
-6.256081 4.540252 -7.4302897 8.514924 6.619209 -6.715289 -7.0664415 6.1704884
5.134717 4.2509127 8.841899 3.1191154 6.3649077 7.5013328 -3.9486191 4.834071

feature_extractor.1.1.weight f4 [16]
00000000: 8100 2f41 97b2 22c1 fd81 1bc1 375a 2241
00000010: 294e 1fc1 e0ba 3041 604a 3f41 d693 e8c0
00000020: 0b34 20c1 0c2f 1dc1 bc0e 4141 2205 1bc1
00000030: fe9d 16c1 eb89 21c1 3b46 4341 49d0 20c1
10.937623 -10.168601 -9.719235 10.147025 -9.956582 11.045624 11.955658 -7.2680464
-10.012706 -9.823986 12.066097 -9.688753 -9.413572 -10.096171 12.204646 -10.050851

feature_extractor.1.1.bias f4 [16]
00000000: 6fb5 3341 d2cf 33c1 0c3e 35c1 4b4b 2741
00000010: cea4 2ec1 d2ee 2fc1 7e5e 3141 a0c2 1941
00000020: d658 2ec1 3edc 2241 2827 34c1 8c33 2a41
00000030: 61d3 34c1 93f4 31c1 26c1 3141 b936 32c1
11.231795 -11.238237 -11.327648 10.455882 -10.9152355 -10.995806 11.085569 9.610016
-10.896688 10.17877 -11.25956 10.637585 -11.301606 -11.1222105 11.109655 -11.13836

feature_extractor.1.1.running_mean f4 [16]
00000000: 2823 a1c5 c896 6ec5 a942 9d45 46b9 e2c4
00000010: 0540 c5c4 5939 39c4 b0d8 3545 f91c f9c2
00000020: 797c 2a45 f1da 0e45 d266 4044 64e1 e944
00000030: 3074 d3c4 e071 70c3 297f d942 e4e4 bbc4
-5156.3945 -3817.4238 5032.3325 -1813.7898 -1578.0006 -740.89606 2909.543 -124.55659
2727.7795 2285.6838 769.60657 1871.0435 -1691.6309 -240.44482 108.74836 -1503.1528

feature_extractor.1.1.running_var f4 [16]
00000000: 88cf ba4b 6615 1a4b 8730 824b a1a4 ac4a
00000010: 8f4d aa49 9586 e649 bda8 264b bdcc fa48
00000020: a981 d84a 4d7e 0b4a e290 3149 eee1 d849
00000030: 2b79 c64a 3603 ed49 cc46 c048 26b2 a349
2.4485648e+07 1.0098022e+07 1.7064206e+07 5.6571685e+06 1.3951219e+06 1.8884666e+06 1.0922173e+07 513637.9
7.0944845e+06 2.2854592e+06 727310.1 1.7767018e+06 6.5035735e+06 1.9416068e+06 393782.38 1.3409968e+06

feature_extractor.2.0.weight f4 [16, 16, 3, 3]
00000000: 880f 2d41 061a 2ec1 d9ff 2e41 a542 2ec1
00000010: f884 2dc1 fb48 1fc1 c2cf 2dc1 5ab8 2941
00000020: 4cfb 2c41 2cc2 2f41 adfb 2f41 b3e7 2f41
00000030: 303e 3041 da1b 2e41 9e7d 2f41 a8aa 2f41
00000040: 95b7 2f41 e4ee 2d41 d917 3041 c2fe 2f41
00000050: 8b85 2f41 e3d1 2f41 8c58 3041 5b44 2e41
00000060: e966 2e41 cf4e 2f41 6b2a 3041 3f9a 3041
00000070: a671 2e41 d49f 2bc1 fc51 2e41 71d7 2e41
00000080: 826b 2e41 69df 2e41 d23f 3041 7854 2e41
00000090: 712b 2fc1 4de3 2ec1 d65c 2ec1 6fab 2ec1
000000a0: 3c72 2fc1 30dd 2c41 41a4 30c1 f9ff 2fc1
000000b0: db59 28c1 ebf5 2f41 1cec 2e41 0446 2e41
000000c0: a5cc 2f41 6526 3041 45e9 2f41 7945 2f41
000000d0: bb2b 2f41 e5fc 2f41 c90a 2f41 b3df 2f41
000000e0: 8851 3041 e9e5 2cc1 d03d 2e41 f2ee 2f41
000000f0: f789 2dc1 617a 2f41 3076 2f41 098f 3041
00000100: 8bd7 2ac1 37ae 2bc1 cfc8 2fc1 cb3e 2f41
00000110: 047b 2e41 11ab 2fc1 c881 2dc1 f635 2e41
00000120: 613c 2e41 9483 2e41 ef42 2f41 506c 2e41
00000130: 843b 3041 23a6 2e41 66f7 2441 74bc 2f41
00000140: c414 2e41 cc7d 2f41 68c7 2f41 bd20 2e41
00000150: 1f37 2f41 ead7 2f41 2a02 3041 2706 2e41
00000160: f1a2 2e41 e1c9 2e41 1a28 2f41 c282 2dc1
00000170: c6f5 2d41 b330 2ec1 025a 2f41 7385 3041
00000180: fe7f 2cc1 6981 2e41 a42a 2f41 8041 3041
00000190: 4c47 2f41 b03e 2f41 3496 2f41 fbf0 2d41
000001a0: addd 2e41 2ae1 2f41 5965 2f41 63a9 2e41
000001b0: 07f4 2e41 cd7e 2f41 c0f4 2d41 2f01 3041
000001c0: 04f7 2f41 138d 2e41 299d 2f41 724d 2e41
000001d0: 7562 2f41 3806 30c1 195e 2fc1 9b15 2ec1
000001e0: fc52 2ec1 c199 2ec1 3fd1 2f41 2edd 2ec1
000001f0: d048 2fc1 e26e 2e41 bd06 3041 0182 2f41
00000200: 5a8d 2d41 fce0 2dc1 8565 2e41 3a3b 2e41
00000210: 8b92 2f41 9f62 2e41 d63d 2e41 1b7e 2dc1
00000220: d5fd 2fc1 3f11 2ec1 91ee 2ec1 9ff8 2ec1
00000230: 19de 2441 8758 2ec1 17a2 2ec1 0e1a 2ec1
00000240: bf98 2d41 1983 2e41 c466 2ec1 8d9b 2e41
00000250: f343 2e41 7e5b 2e41 7a7a 2f41 5ba9 2f41
00000260: 59b3 2d41 280c 2fc1 a46c 1941 66ca 2cc1
00000270: f725 2ec1 174e 2dc1 2543 2fc1 020f 30c1
00000280: c2ba 2ec1 e340 30c1 c4b3 2e41 c2b3 2e41
00000290: 792d 2e41 b838 2e41 c4d9 2e41 4ac0 2e41
000002a0: 23f2 2f41 a822 3041 b240 2f41 45a3 3041
000002b0: 068b 3041 e93f 2e41 552f 2e41 1031 2e41
000002c0: b955 3041 4054 3041 eef3 2d41 a41c 2e41
000002d0: 05e3 2ec1 c164 30c1 34c7 2ec1 0313 2fc1
000002e0: a779 2fc1 ed99 2ec1 9009 30c1 9c34 2fc1
000002f0: 5b40 2ec1 00ff 2e41 3b5e 2f41 a2a7 2f41
00000300: 3665 2fc1 32a0 2ec1 f748 2ec1 cb1c 2ec1
00000310: 5efc 2dc1 47a2 2fc1 867a 2f41 167a 2e41
00000320: ecee 2f41 86a0 2e41 e1d8 2e41 cc24 2e41
00000330: 8d59 2f41 736e 2e41 199a 2d41 cc25 2f41
00000340: 4abc 2f41 97a6 3041 3b67 2f41 1c27 2f41
00000350: 038c 2f41 08e8 2e41 b7bb 2e41 fbaa 2641
00000360: 827f 2e41 fef4 2f41 23f9 2f41 d504 2e41
00000370: fd42 2e41 dd12 3041 7bd2 2e41 06ee 2e41
00000380: 722a 2e41 cdf9 2f41 e329 2e41 a58d 2e41
00000390: b7ee 2f41 5e82 2e41 1200 2f41 ddc9 2f41
000003a0: a952 2e41 d014 2941 6333 2f41 f927 2e41
000003b0: c566 3041 b976 2e41 da4b 3041 4441 2f41
000003c0: 2d8f 2b41 6637 3041 99e4 2d41 3a68 3041
000003d0: b8b6 2f41 0fce 2f41 2b95 2f41 3e19 2e41
000003e0: ab34 3041 3325 2f41 040c 3041 1278 2f41
000003f0: 122b 2f41 422b 2e41 341c 3041 682b 2f41
10.816292 -10.881353 10.937463 -10.891271 -10.844963 -9.9553175 -10.863222 10.607508
10.811352 10.984905 10.998944 10.994067 11.0151825 10.8818 10.968168 10.979164
10.98232 10.870823 11.005822 10.999697 10.970103 10.988742 11.021618 10.891688
10.900125 10.95674 11.010356 11.037658 10.902746 -10.726521 10.895016 10.927598
10.901247 10.9295435 11.015581 10.895622 -10.948106 -10.930493 -10.897665 -10.916854
-10.965389 10.804001 -11.040101 -10.999993 -10.521937 10.997539 10.932644 10.892094
10.987462 11.009374 10.994451 10.954461 10.948176 10.999242 10.940133 10.992114
11.019905 -10.80613 10.890091 10.995836 -10.846183 10.967378 10.966354 11.034921
-10.677623 -10.730033 -10.986526 10.95283 10.905033 -10.979264 -10.844185 10.888174
10.889741 10.907124 10.953841 10.9014435 11.01453 10.915561 10.3104 10.983509
10.88007 10.968212 10.986183 10.882993 10.950957 10.990213 11.000528 10.876502
10.914781 10.924287 10.94729 -10.844423 10.872503 -10.886889 10.959475 11.03258
-10.781248 10.906594 10.94791 11.015991 10.954906 10.952805 10.974171 10.871333
10.92912 10.992472 10.962243 10.916354 10.934577 10.968457 10.872253 11.000289
10.997807 10.909442 10.975869 10.893908 10.961537 -11.001518 -10.960473 -10.880275
-10.89526 -10.912538 10.988585 -10.928999 -10.9552765 10.902071 11.001645 10.969239
10.84701 -10.867428 10.899785 10.88946 10.973277 10.899077 10.890097 -10.843287
-10.999471 -10.87921 -10.933244 -10.9356985 10.304223 -10.896613 -10.914573 -10.881361
10.849792 10.907006 -10.900089 10.912976 10.891589 10.897337 10.9674015 10.978847
10.856286 -10.940468 9.589024 -10.799414 -10.884269 -10.831565 -10.953893 -11.003664
-10.920595 -11.0158415 10.918888 10.918886 10.886102 10.888847 10.928165 10.921946
10.996615 11.008461 10.953295 11.039861 11.033941 10.890603 10.886556 10.886978
11.020928 11.020569 10.872053 10.881992 -10.930425 -11.024598 -10.923634 -10.942142
-10.9672 -10.91258 -11.002335 -10.950344 -10.890712 10.937256 10.9605055 10.978426
-10.96221 -10.91411 -10.892814 -10.88203 -10.874113 -10.9771185 10.967413 10.904806
10.995831 10.91419 10.927949 10.883984 10.959363 10.901965 10.8501215 10.946728
10.983469 11.040671 10.962703 10.947048 10.971683 10.931648 10.920829 10.416743
10.90613 10.997313 10.998324 10.87618 10.891355 11.004605 10.926387 10.933111
10.885363 10.9984865 10.885226 10.909581 10.99578 10.906828 10.937517 10.986783
10.895181 10.567581 10.950046 10.884759 11.02509 10.903985 11.018518 10.953434
10.722455 11.013525 10.86831 11.025446 10.982109 10.987807 10.973918 10.881163
11.012858 10.946582 11.0029335 10.966814 10.948015 10.885561 11.006886 10.948097

feature_extractor.2.0.bias f4 [16]
00000000: 34ea 9ac0 276e 37c0 01b0 c4bf b451 f93f
00000010: 77fd d0c0 d06c a940 51ff bb40 018b 4e40
00000020: 27d0 8940 3885 ba40 2751 4ac0 3903 76c0
00000030: 83eb 2fc0 1aec 56c0 63de 0c40 2b85 b4c0
-4.8410892 -2.8660982 -1.5366212 1.9478059 -6.5309405 5.294533 5.8749166 3.2272341
4.306659 5.828762 -3.1612031 -3.8439467 -2.7487495 -3.3581605 2.2010734 -5.641256

feature_extractor.2.1.weight f4 [16]
00000000: f614 1dc1 4c5e 1dc1 3c25 21c1 d027 3941
00000010: 4501 1cc1 0b15 4041 b2dc 1fc1 3161 22c1
00000020: dc7b 3a41 efd1 4141 00f5 3341 4884 1fc1
00000030: bbd6 20c1 11b4 20c1 4914 3941 f78e 4141
-9.817617 -9.835522 -10.07159 11.57222 -9.75031 12.005137 -9.991381 -10.148728
11.655239 12.113753 11.247314 -9.969795 -10.052424 -10.043962 11.567452 12.097404

feature_extractor.2.1.bias f4 [16]
00000000: 8d63 2541 9e5d 2241 6b1c 32c1 102a 2641
00000010: 9440 2341 f8f8 31c1 2df3 30c1 06cc 1541
00000020: 99f7 0a41 d807 27c1 1d81 18c1 4d51 2dc1
00000030: ff10 31c1 eafe 2ec1 443d 26c1 b13d 1cc1
10.336804 10.147856 -11.131938 10.385269 10.203266 -11.123283 -11.059369 9.36231
8.685449 -10.439415 -9.531522 -10.832349 -11.066649 -10.937235 -10.389957 -9.765061

feature_extractor.2.1.running_mean f4 [16]
00000000: d7d2 8f45 141d c845 6845 acc5 6abd f4c5
00000010: bc64 86c5 594f 2d45 1d39 ddc5 22f2 c045
00000020: 2791 e545 8281 2145 eb75 9545 b3d5 b2c5
00000030: f55c d4c5 375a 7dc4 613e 2544 387e 1445
4602.355 6403.635 -5512.676 -7831.677 -4300.592 2772.9592 -7079.139 6174.2666
7346.144 2584.0942 4782.7397 -5722.7124 -6795.6196 -1013.4096 660.9747 2375.8887

feature_extractor.2.1.running_var f4 [16]
00000000: aed4 8b4a bcf2 d54a 87fd a84a c14b 4d4b
00000010: 3b78 3a4b 2bb4 f44a 9131 fb4a 29ed 004b
00000020: 69da 114b fd63 9749 cfc1 d34a 11cf b04a
00000030: 4907 1f4b c4c7 424b 330e 894a 5973 5149
4.581975e+06 7.010654e+06 5.5374755e+06 1.3454273e+07 1.2220475e+07 8.0184535e+06 8.2311125e+06 8.449321e+06
9.558633e+06 1.2401916e+06 6.9388555e+06 5.7936725e+06 1.0422089e+07 1.2765124e+07 4.4910335e+06 857909.56

feature_extractor.3.0.weight f4 [16, 16, 3, 3]
00000000: cbb1 2741 e4c5 2fc1 676c 2dc1 94b2 2ec1
00000010: 2624 2fc1 72ce 2ec1 51e5 19c1 eb13 2d41
00000020: 3304 2ec1 06d8 2c41 4c00 30c1 a29a 2e41
00000030: 24ec 2ec1 96e1 2fc1 8b1d 30c1 62f7 2ec1
00000040: 2182 2ec1 9f83 30c1 7cf7 2dc1 5716 2fc1
00000050: f8c5 2dc1 f300 2ac1 b1a2 2c41 3d61 2fc1
00000060: af8a 2dc1 34ef 2dc1 536b 2ec1 0ff1 2c41
00000070: 2e4f 1541 e388 2c41 6efa 2d41 a617 fbc0
00000080: ba67 2e41 1bf2 2e41 6328 1dc1 4793 2d41
00000090: a481 2f41 bb2a 3041 e7d4 2e41 2be0 2f41
000000a0: 5eb2 2ec1 eb86 26c1 5d69 2e41 2d83 2e41
000000b0: fc63 3041 6ada 2ec1 bd90 2fc1 8d91 2fc1
000000c0: b8c3 2ec1 ad79 2fc1 5d3e 30c1 c9c5 2fc1
000000d0: c772 30c1 6395 30c1 e257 2e41 7e27 3041
000000e0: 6ed6 2f41 a821 2f41 495a 2e41 5a1f 2e41
000000f0: ba4e 2e41 9fce 2f41 3f52 3041 2dd7 2fc1
00000100: 5798 2fc1 3c1f 2fc1 bd91 2fc1 663b 2ec1
00000110: 7617 30c1 1927 2ec1 6362 2fc1 f954 2fc1
00000120: 7479 2fc1 94e5 2fc1 eaa5 2ec1 1425 2ec1
00000130: 073a 2ec1 398f 30c1 5518 2fc1 8c26 30c1
00000140: be4a 2fc1 bbdd 30c1 73b4 30c1 8fd3 2fc1
00000150: 1554 2fc1 dc06 2fc1 b5b2 2ec1 1ae2 2e41
00000160: d0eb 2cc1 c9b7 30c1 4702 2ec1 1111 30c1
00000170: aad2 30c1 fc86 2ec1 3203 30c1 c8c7 2fc1
00000180: 1077 2ec1 7e10 2fc1 16fd 2fc1 4990 2ec1
00000190: eeed 2dc1 cbf0 2dc1 3f51 2fc1 5f18 2ec1
000001a0: 22fa 2dc1 10bb 2dc1 e16e 30c1 45a5 2ec1
000001b0: 678c 2f41 2cbd 2f41 c285 2f41 d289 2e41
000001c0: 439e 2e41 4036 2f41 28f0 2e41 7e17 2e41
000001d0: 5cd4 2e41 3d96 2ec1 41c0 2fc1 854d 2ec1
000001e0: dcc4 2dc1 1728 2ec1 4efe 2ec1 e0d4 2ec1
000001f0: 79ac 2ec1 630f 2fc1 7fbc 2fc1 9154 2ec1
00000200: 22e8 2ec1 c542 2ec1 566e 2fc1 ff52 2ec1
00000210: 0eb6 1fc1 03b2 2ec1 3e09 2ec1 98b3 30c1
00000220: c970 30c1 1aa6 30c1 b57b 30c1 b43b 30c1
00000230: 0e8b 2fc1 a56c 2ec1 2e60 2fc1 4782 2fc1
00000240: 521b 2b41 353f 2e41 963d 2f41 f2ab 2f41
00000250: d948 2e41 6299 2d41 ffdc 2d41 8b0c 2e41
00000260: 61e7 2041 8592 2e41 f8db 2e41 0c36 2f41
00000270: 11e0 2f41 98ec 2941 0588 2641 2ff0 2d41
00000280: 1f32 2f41 f7dc 2f41 6991 2f41 23cd 2e41
00000290: 027d 2f41 50a2 2e41 ffa9 2f41 eae3 2f41
000002a0: 46df 2f41 ca5d 2f41 04d9 2e41 7716 3041
000002b0: 5598 3041 8a19 2f41 adca 2e41 d5f5 2f41
000002c0: b232 3041 5595 2f41 b10e 3041 68cf 2f41
000002d0: bdef 2e41 0c86 2e41 6f72 2dc1 96a9 2e41
000002e0: e36d 2ec1 d200 2d41 4e5b 2f41 cfdf 2ec1
000002f0: 526e 2ec1 9951 3041 3a60 3041 e530 2f41
00000300: 307d 2f41 26f9 2f41 19c9 2e41 3886 2f41
00000310: 0bc2 2e41 4ef3 2f41 e9ce 2d41 fa3b 2f41
00000320: edbc 2ec1 a9b2 2dc1 8cd6 2b41 c4c9 2dc1
00000330: df19 2e41 25ab 2d41 66b5 2d41 0cfc 2d41
00000340: e248 2fc1 deee 2ec1 1af8 2e41 3745 2e41
00000350: 7150 2f41 6756 2d41 d096 2941 8598 2941
00000360: 3aa4 3041 d4d0 1d41 c0e3 2ac1 225c 2e41
00000370: 32a7 2f41 f6ea 2d41 ce16 2e41 4578 2f41
00000380: f730 2f41 f524 2f41 b20d 2f41 6b5a 3041
00000390: 3687 3041 3866 2f41 d458 3041 10ad 2e41
000003a0: 3282 2f41 4999 2f41 201e 3041 1825 2f41
000003b0: 946f 2f41 78f0 2d41 eb3b 2e41 67f8 2e41
000003c0: 17e5 2f41 80ef 2e41 51e1 22c1 b300 2dc1
000003d0: 9028 2e41 3406 2b41 3d3d 30c1 1282 2641
000003e0: 1568 30c1 7bca 2d41 f889 2a41 fdbf 2fc1
000003f0: e56a 2e41 c4f8 2f41 0ccd 2c41 8e32 2f41
10.4809065 -10.985813 -10.838965 -10.918598 -10.946325 -10.925402 -9.618485 10.817363
-10.876025 10.80274 -11.0000725 10.912752 -10.9326515 -10.992575 -11.007213 -10.935396
-10.90677 -11.032134 -10.872921 -10.942954 -10.860832 -10.625232 10.78972 -10.96124
-10.846358 -10.870899 -10.901202 10.808852 9.331831 10.78342 10.87364 -7.846637
10.900324 10.934108 -9.82236 10.848456 10.969151 11.010432 10.926978 10.9922285
-10.918547 -10.407939 10.900723 10.907025 11.02441 -10.928324 -10.9728365 -10.973035
-10.922783 -10.967206 -11.015225 -10.985787 -11.028022 -11.036471 10.896456 11.009642
10.989851 10.945717 10.897042 10.882654 10.89422 10.987945 11.02008 -10.990033
-10.974692 -10.945126 -10.973081 -10.889502 -11.005728 -10.884545 -10.96152 -10.958245
-10.967152 -10.993549 -10.915506 -10.884052 -10.889167 -11.034966 -10.94344 -11.009411
-10.955748 -11.054133 -11.044055 -10.98915 -10.958028 -10.939175 -10.91863 10.930201
-10.807571 -11.044869 -10.875556 -11.004167 -11.051432 -10.907955 -11.00078 -10.986275
-10.904068 -10.941526 -10.999289 -10.910226 -10.870588 -10.871287 -10.957335 -10.88095
-10.873568 -10.85817 -11.02707 -10.915349 10.971778 10.983685 10.970156 10.908648
10.913638 10.950745 10.933632 10.880735 10.926846 -10.911679 -10.984437 -10.893926
-10.860561 -10.884788 -10.937086 -10.926971 -10.917108 -10.9412565 -10.98352 -10.895646
-10.931673 -10.891301 -10.9644375 -10.895263 -9.981947 -10.91846 -10.877256 -11.043846
-11.027535 -11.040552 -11.030202 -11.014576 -10.971449 -10.901525 -10.960981 -10.969306
10.69417 10.890431 10.952536 10.979479 10.892785 10.849947 10.866454 10.878062
10.056489 10.910771 10.928703 10.950695 10.992204 10.620262 10.408208 10.871139
10.949737 10.9914465 10.973001 10.925082 10.9680195 10.914627 10.979003 10.993143
10.99201 10.960398 10.927982 11.005485 11.03719 10.943735 10.924481 10.997518
11.012377 10.973958 11.003587 10.988136 10.93353 10.907726 -10.840438 10.916403
-10.901828 10.8127 10.959791 -10.929641 -10.901934 11.019921 11.023493 10.949437
10.968063 10.998327 10.924096 10.970268 10.922374 10.996901 10.863015 10.952143
-10.921124 -10.856118 10.73988 -10.861759 10.881316 10.854283 10.856787 10.874035
-10.955294 -10.933317 10.935572 10.891898 10.957139 10.833594 10.599319 10.599736
11.040094 9.863483 -10.680603 10.897493 10.978319 10.8698635 10.880568 10.966863
10.949454 10.946523 10.940844 11.022075 11.0330105 10.962456 11.021687 10.917252
10.969286 10.974923 11.007355 10.946556 10.964741 10.871208 10.889628 10.935645
10.99343 10.933472 -10.180009 -10.812671 10.884903 10.689014 -11.014951 10.406755
-11.025411 10.861934 10.658684 -10.984372 10.901097 10.998234 10.80006 10.949842

feature_extractor.3.0.bias f4 [16]
00000000: 379d 973f 5f4b 50c0 4b80 80c0 82d0 a33f
00000010: b6eb c740 a1dd 1cc0 01dc f9bf 7426 cfc0
00000020: facd c340 cc75 5540 ecec 363d 6fe5 a940
00000030: 55b3 28c0 f859 4ec0 a6b5 aa40 f7d5 fabf
1.1844853 -3.2546003 -4.015661 1.2798007 6.2475233 -2.4510272 -1.9520265 -6.473444
6.1188936 3.3353148 0.04465954 5.309257 -2.6359456 -3.2242413 5.334674 -1.9596547

feature_extractor.3.1.weight f4 [16]
00000000: 08cf 1fc1 dc5e 4141 6e57 1dc1 736d 1fc1
00000010: 9cd2 4141 6534 3f41 bac1 3141 e9c3 08c1
00000020: c25b 21c1 254c 3041 a60e 21c1 c59d 3041
00000030: 5695 21c1 3fa0 07c1 d03f 4241 385f 1dc1
-9.988045 12.085659 -9.833845 -9.964221 12.113918 11.950292 11.109797 -8.54783
-10.084902 11.01859 -10.066076 11.038518 -10.098959 -8.476623 12.140579 -9.835747

feature_extractor.3.1.bias f4 [16]
00000000: 16f8 2c41 8801 3041 154b 28c1 7226 30c1
00000010: b87e 2741 6a21 21c1 e0e4 1fc1 bd78 15c1
00000020: ead4 2dc1 1808 2bc1 a4bc 31c1 21b7 23c1
00000030: 233f 2ec1 019e 2441 f362 0fc1 090a 1741
10.810568 11.000374 -10.518331 -11.009386 10.468437 -10.070658 -9.993378 -9.341977
-10.864481 -10.689476 -11.108555 -10.232209 -10.890414 10.288575 -8.961658 9.43995

feature_extractor.3.1.running_mean f4 [16]
00000000: 0e23 48c5 db45 be45 4f98 7d45 0089 82c3
00000010: 084f 9845 c77c d645 f3fa 3b45 d274 cb45
00000020: 447e 7ec5 3fa0 8c45 957d 9cc5 0d2d 8b45
00000030: 2ae8 bec5 ffbd ac45 ab49 4c45 2579 1445
-3202.191 6088.732 4057.5193 -261.0703 4873.879 6863.597 3007.6843 6510.6025
-4071.8916 4500.031 -5007.6978 4453.6313 -6109.0205 5527.7495 3268.6042 2375.5715

feature_extractor.3.1.running_var f4 [16]
00000000: a8a3 1e4b 22ac 7c4b d878 624b cabd 854a
00000010: 23d0 c64a a904 854b c64c a04a 45ae 4f4b
00000020: d594 e54a 8f45 1c4b 2ede da4a f8cd 814a
00000030: bd98 414b 21c4 0a4b 1ce8 fd4a bf87 6b4a
1.0396584e+07 1.6559138e+07 1.4842072e+07 4.382437e+06 6.5147055e+06 1.7434962e+07 5.252707e+06 1.3610565e+07
7.5229225e+06 1.0241423e+07 7.171863e+06 4.253436e+06 1.2687549e+07 9.094177e+06 8.320014e+06 3.8589278e+06

feature_extractor.4.0.weight f4 [16, 16, 3, 3]
00000000: 5965 30c1 66d3 2ec1 875d 2ec1 eef3 30c1
00000010: 8e1e 2dc1 0376 2cc1 9080 2fc1 8d6c 2ec1
00000020: 044a 2fc1 2bbf 30c1 827a 2ec1 08f1 2fc1
00000030: 4393 2fc1 2b2b 2ec1 d47b 2ec1 5c1f 30c1
00000040: 23fd 2fc1 92f7 2dc1 5586 2dc1 0815 2ec1
00000050: 8754 2ec1 fd4b 2fc1 32f9 2dc1 752f 30c1
00000060: 848e 30c1 1e2c 30c1 b268 30c1 affa 2dc1
00000070: 38e3 2fc1 9a4d 2fc1 e638 2fc1 0075 2fc1
00000080: f2b1 2ec1 3047 2ec1 cbf8 2fc1 805e 2ec1
00000090: 0346 2ec1 8dec 30c1 4961 2fc1 894e 2ec1
000000a0: f6f8 2dc1 c23a 30c1 1744 2ec1 3660 30c1
000000b0: 137b 30c1 9762 2fc1 99f8 2dc1 dc86 30c1
000000c0: 8a8c 2fc1 6b6c 2fc1 3f30 2ec1 220b 2fc1
000000d0: 7194 2fc1 68d7 2ec1 f862 30c1 e96e 2fc1
000000e0: 62d5 2ec1 f56d 2fc1 d2bd 2fc1 390f 30c1
000000f0: 895f 30c1 dda1 2ec1 9230 2ec1 7de6 2ec1
00000100: 9dcc 2fc1 cb9f 30c1 4edc 2fc1 c3d9 2fc1
00000110: 1fd4 30c1 14f9 2fc1 29bc 30c1 0b53 2fc1
00000120: f857 2ec1 234d 2ec1 97b2 2fc1 0aab 2ec1
00000130: 9bd5 2ec1 88e5 2fc1 b598 2ec1 2a21 2ec1
00000140: a395 2ec1 92b1 2fc1 4f05 30c1 2535 30c1
00000150: 8454 2fc1 db87 2ec1 15ff 2fc1 4703 2fc1
00000160: 81bd 2ec1 ee90 2ec1 9b7e 2fc1 08a8 2ec1
00000170: 0615 30c1 431f 2fc1 14bf 2fc1 31e4 2dc1
00000180: bf1e 2fc1 950d 2ec1 0c4e 2ec1 8cbd 2fc1
00000190: d85e 2ec1 c3d9 2dc1 56f8 2fc1 a9aa 2dc1
000001a0: 5c15 2ec1 154f 2ec1 c025 2ec1 e414 30c1
000001b0: 9ccc 2ec1 68cc 2ec1 cc25 24c1 99a6 2b41
000001c0: 18f4 23c1 1650 2f41 b1ac 30c1 7177 2ec1
000001d0: 662a 2ec1 c7cb 2d41 805c 1f41 4b02 31c1
000001e0: bcf2 2fc1 c7c5 2fc1 548f 30c1 c621 2fc1
000001f0: 52de 2fc1 2e39 30c1 a647 30c1 addf 2ec1
00000200: 496b 2ec1 4b55 2ec1 e307 2ec1 3271 30c1
00000210: cdd4 2fc1 b801 2fc1 9378 30c1 70e2 2ec1
00000220: cae4 30c1 9733 2fc1 c97c 2ec1 b1b1 2fc1
00000230: 1155 30c1 dea5 2fc1 ad94 30c1 e3fa 2ec1
00000240: 8afb 2ec1 ed81 30c1 d2a9 2ec1 dc8b 30c1
00000250: 1ff7 2ec1 5a9b 2ec1 6648 30c1 89e8 2fc1
00000260: ddcc 2ec1 c066 25c1 fc13 2f41 b02d 3141
00000270: d0e2 25c1 53ac 2e41 dde4 2e41 031e 3041
00000280: ab3c 2e41 3beb 20c1 2f1f 2ec1 878c 2e41
00000290: 282d 3141 3e6a 2f41 edb2 2f41 ecec 2f41
000002a0: d330 2d41 264c 2b41 68cb 2f41 4196 2fc1
000002b0: 9ef5 1fc1 47f5 2b41 39b0 2ec1 1115 2ec1
000002c0: 5e53 2ec1 95b8 30c1 9080 2fc1 ad3c 2ec1
000002d0: 494c 2cc1 10c0 2e41 8878 3141 5894 2f41
000002e0: 0eb7 2f41 be34 3041 4a26 2c41 03a4 2a41
000002f0: 120c 2f41 1893 29c1 447d 2441 397d 3141
00000300: 209c 2e41 1f63 2d41 b4cf 2e41 62f6 2cc1
00000310: 9ed0 2cc1 f6ee 2ec1 7974 2ec1 4d09 21c1
00000320: 32e3 2e41 736b 2e41 b425 2f41 e031 2e41
00000330: aba7 2fc1 20e6 2ec1 8c04 2041 2faf 2ec1
00000340: 9488 2ec1 57b4 25c1 fac2 2dc1 72b3 2ac1
00000350: df79 2e41 e2e7 2ec1 893a 2fc1 3c17 2fc1
00000360: 2ee2 2ec1 de83 2ec1 fe02 2fc1 341f 2fc1
00000370: 6218 2fc1 8feb 2fc1 9869 30c1 4d9a 30c1
00000380: eb38 30c1 2d8c 29c1 5981 2f41 5e22 2f41
00000390: 979e 2f41 d456 2e41 251e 2e41 9b8e 2f41
000003a0: 9b14 3041 9cc9 2e41 439f 30c1 44bf 30c1
000003b0: 6a97 2fc1 7e54 2fc1 a3b8 30c1 3ce7 2ec1
000003c0: 88ec 2ec1 9413 30c1 b4fe 2ec1 b153 2ec1
000003d0: a194 2cc1 ed43 0f41 431a 2fc1 beb5 2ec1
000003e0: d0f2 2dc1 3a94 2ec1 e0bc 30c1 55fd 2ec1
000003f0: 457c 2fc1 42c0 2fc1 27a7 2ec1 fc9d 2ec1
-11.024743 -10.926611 -10.897834 -11.059553 -10.81996 -10.778811 -10.968887 -10.901502
-10.95557 -11.046672 -10.904909 -10.9963455 -10.973453 -10.885539 -10.905231 -11.007656
-10.999301 -10.872942 -10.845296 -10.880135 -10.895637 -10.956052 -10.873339 -11.011586
-11.034794 -11.010771 -11.02556 -10.873702 -10.992973 -10.956446 -10.951391 -10.966064
-10.918444 -10.89238 -10.99824 -10.898071 -10.892093 -11.057752 -10.961251 -10.894174
-10.8732815 -11.014345 -10.8916235 -11.023489 -11.030047 -10.96157 -10.873193 -11.032925
-10.971811 -10.963969 -10.886779 -10.940218 -10.973741 -10.927589 -11.024162 -10.964578
-10.927095 -10.964345 -10.983843 -11.003716 -11.023324 -10.914517 -10.886858 -10.931272
-10.987454 -11.039012 -10.991285 -10.9906645 -11.051787 -10.99831 -11.045938 -10.957774
-10.896477 -10.893832 -10.981101 -10.916758 -10.92715 -10.993538 -10.912282 -10.883097
-10.911532 -10.980852 -11.001296 -11.012975 -10.958134 -10.908168 -10.999776 -10.9383
-10.921266 -10.910383 -10.96841 -10.916023 -11.005133 -10.945132 -10.98415 -10.868211
-10.945006 -10.878316 -10.894054 -10.983776 -10.898155 -10.8656645 -10.998129 -10.854165
-10.880215 -10.894307 -10.884216 -11.0051 -10.924953 -10.924904 -10.259228 10.728173
-10.247093 10.957052 -11.042161 -10.9041605 -10.885351 10.86225 9.960083 -11.06306
-10.996761 -10.9857855 -11.034992 -10.945745 -10.991777 -11.01396 -11.017492 -10.929608
-10.901193 -10.8958235 -10.876925 -11.027636 -10.989453 -10.93792 -11.029437 -10.930283
-11.055857 -10.950095 -10.905465 -10.980882 -11.020768 -10.977995 -11.036298 -10.936252
-10.936411 -11.03172 -10.91646 -11.034145 -10.935332 -10.912928 -11.017675 -10.994271
-10.925015 -10.337585 10.942379 11.073654 -10.367874 10.917071 10.930875 11.007327
10.8898115 -10.057429 -10.882613 10.909308 11.073524 10.963438 10.981183 10.995342
10.82442 10.706091 10.98716 -10.974183 -9.997465 10.747382 -10.918023 -10.880143
-10.895353 -11.045064 -10.968887 -10.889813 -10.768624 10.92189 11.091927 10.973717
10.982191 11.0128765 10.759348 10.665042 10.940447 -10.598412 10.280582 11.093072
10.913116 10.8366995 10.925709 -10.810152 -10.800932 -10.93334 -10.903436 -10.064771
10.930468 10.901233 10.946705 10.8871765 -10.978435 -10.931183 10.00111 -10.917769
-10.908344 -10.356528 -10.860102 -10.66881 10.904754 -10.931612 -10.951791 -10.943172
-10.93022 -10.907194 -10.9382305 -10.945118 -10.943453 -10.995009 -11.02578 -11.037671
-11.013896 -10.596723 10.969079 10.94589 10.976218 10.896198 10.8823595 10.972316
11.005031 10.924221 -11.038882 -11.046696 -10.974466 -10.958128 -11.045077 -10.931454
-10.932747 -11.00478 -10.937183 -10.895432 -10.786286 8.954083 -10.943912 -10.919371
-10.87178 -10.911188 -11.046112 -10.936849 -10.967839 -10.984438 -10.915809 -10.91357

feature_extractor.4.0.bias f4 [16]
00000000: a9a0 dc40 eb2f de40 8e1b 0741 a081 0541
00000010: 2bf6 1141 077a 0a41 2526 1041 b3ba d740
00000020: 8a2d fb40 e6c1 0441 88f6 1741 814e d0c0
00000030: 5b75 0741 06f4 0241 dcf8 e240 a0b6 f940
6.894612 6.9433494 8.444227 8.344147 9.1226 8.654792 9.009313 6.7415404
7.849309 8.2973385 9.497688 -6.509583 8.466151 8.184576 7.0928783 7.803543

feature_extractor.4.1.weight f4 [16]
00000000: 9af4 3341 be07 1fc1 4682 1dc1 b6d7 21c1
00000010: cab3 1dc1 f38c 16c1 94e9 13c1 eaf8 20c1
00000020: 7dc1 3141 f94a 3541 77c0 1fc1 3a44 1641
00000030: 35d1 22c1 ca73 22c1 891b 1fc1 61ef 1dc1
11.247217 -9.93939 -9.844305 -10.115164 -9.856394 -9.409411 -9.244526 -10.06077
11.109738 11.330804 -9.9844885 9.391657 -10.176076 -10.153269 -9.944222 -9.870942

feature_extractor.4.1.bias f4 [16]
00000000: ab86 2541 a08f 25c1 315e 2ac1 c173 2fc1
00000010: 9c84 2bc1 3ec5 1ec1 98f6 2cc1 352e 1f41
00000020: ff3d 2341 2915 2741 3ec8 2ec1 6802 2141
00000030: 849f 2fc1 f292 30c1 d933 2b41 e01b 2cc1
10.345378 -10.347565 -10.647996 -10.96576 -10.719875 -9.923155 -10.810204 9.948781
10.202636 10.442666 -10.923887 10.063087 -10.976444 -11.035875 10.700158 -10.756805

feature_extractor.4.1.running_mean f4 [16]
00000000: d183 cfc5 9806 e944 e767 b5c5 3c7f b4c5
00000010: d7f0 8dc5 ff90 b5c5 93fd 97c4 91f6 b7c5
00000020: 0bb3 99c5 505a d2c5 f6ad 5dc5 a90f 0e45
00000030: 5c95 acc5 2a1f 9ec5 2a0f 29c5 334b b7c5
-6640.477 1864.206 -5804.988 -5775.9043 -4542.105 -5810.1245 -1215.9242 -5886.821
-4918.3804 -6731.289 -3546.8726 2272.9788 -5522.67 -5059.8955 -2704.9478 -5865.4

feature_extractor.4.1.running_var f4 [16]
00000000: 0973 674c 85ab 0a4a fdb9 1f4c b615 2c4c
00000010: b156 514b 7e02 084c 71a0 454b 52d5 cc4b
00000020: 242a 0b4c 0061 474c 03ee b64b 959c cd49
00000030: 754e c24b f88b a44b 27ba e64a 86af 144c
6.067306e+07 2.2719692e+06 4.1871348e+07 4.5111e+07 1.3719217e+07 3.5654136e+07 1.2951665e+07 2.6847908e+07
3.648117e+07 5.2265984e+07 2.3976966e+07 1.6843706e+06 2.5468138e+07 2.1567472e+07 7.5604675e+06 3.897705e+07

dense_layers.0.weight f4 [128, 1132]
00000000: 12f3 2ec1 01f8 2ec1 2029 2fc1 3332 2fc1
00000010: 8108 2fc1 8254 2fc1 d7d9 2ec1 e77f 2fc1
00000020: 050b 2fc1 f849 2fc1 54ad 2ec1 ecf5 2ec1
00000030: be71 2fc1 b5a9 2ec1 306a 2fc1 c374 2fc1
00000040: fa2d 2fc1 faee 2ec1 6280 2fc1 7f61 2fc1
00000050: 84f3 2ec1 e351 2fc1 243a 2fc1 f1dd 2ec1
00000060: 3844 2fc1 2b13 2fc1 eb4d 2fc1 7a37 2fc1
00000070: d0de 2ec1 c601 2fc1 c0c7 2ec1 92d6 2ec1
00000080: 1266 2fc1 6f0e 2fc1 dea6 2ec1 f2a7 2ec1
00000090: 5d92 2ec1 cfca 2ec1 ca33 2fc1 aca5 2ec1
000000a0: 5159 2fc1 3a90 2ec1 2a54 2fc1 82b4 2ec1
000000b0: 851d 2fc1 ad44 2fc1 69cc 2ec1 f916 2fc1
000000c0: c9de 2ec1 b2f8 2ec1 31a1 2ec1 ca32 2fc1
000000d0: 4890 2ec1 1baf 2ec1 9829 2fc1 d1c0 2ec1
000000e0: 0b51 2fc1 95c8 2ec1 e14f 2fc1 100d 2fc1
000000f0: 5a6a 2fc1 655e 2fc1 4f07 2fc1 05e4 2ec1
00000100: f760 2fc1 0468 2fc1 fb06 2fc1 d918 2fc1
00000110: 521b 2fc1 e9de 2ec1 3991 2ec1 8fa7 2ec1
00000120: 3ca5 2ec1 00f9 2ec1 7230 2fc1 4c29 2fc1
00000130: 253e 2fc1 20f8 2ec1 2a05 2fc1 df5f 2fc1
00000140: 7d74 2fc1 e2b9 2ec1 cdbd 2ec1 79e0 2ec1
00000150: 3897 2ec1 29cd 2ec1 17fe 2ec1 56e9 2ec1
00000160: 94aa 2ec1 c610 2fc1 63ef 2ec1 4cf4 2ec1
00000170: 02d6 2ec1 3b1f 2fc1 fb25 2fc1 6a58 2fc1
00000180: 3f27 2fc1 7af6 2ec1 32b7 2ec1 2211 2fc1
00000190: 821b 2fc1 5dc8 2ec1 b8e2 2ec1 61a0 2ec1
000001a0: a702 2fc1 9a23 2fc1 bced 2ec1 95de 2ec1
000001b0: 34d8 2ec1 e2d5 2ec1 c254 2fc1 e2c0 2ec1
000001c0: 4828 2fc1 de86 2fc1 8d24 2fc1 1a07 2fc1
000001d0: 31b0 2ec1 1677 2fc1 65cd 2ec1 2dc0 2ec1
000001e0: c8cc 2ec1 8ec1 2ec1 01a6 2ec1 5fc9 2ec1
000001f0: d576 2fc1 236d 2fc1 651d 2fc1 c666 2fc1
00000200: 906d 2fc1 327c 2fc1 b805 2fc1 8505 2fc1
00000210: b3e1 2ec1 6b1a 2fc1 1e6b 2fc1 c352 2fc1
00000220: 8956 2fc1 3c02 2fc1 22f1 2ec1 f060 2fc1
00000230: 5618 2fc1 f550 2fc1 51a5 2ec1 ae5b 2fc1
00000240: 263c 2fc1 338d 2ec1 c7c5 2ec1 12ea 2ec1
00000250: 878f 2ec1 8607 2fc1 be39 2fc1 dc78 2fc1
00000260: 7f35 2fc1 283e 2fc1 5c57 2fc1 7775 2fc1
00000270: 402c 2fc1 3fa9 2ec1 d26c 2fc1 1bda 2ec1
00000280: 2135 2fc1 42cc 2ec1 fb7f 2fc1 9178 2fc1
00000290: a763 2fc1 e399 2ec1 830f 2fc1 5317 2fc1
000002a0: 5fc3 2ec1 c620 2fc1 cc22 2fc1 40ca 2ec1
000002b0: 753c 2fc1 d713 2fc1 80db 2ec1 a7cb 2ec1
000002c0: 833c 2fc1 f792 2ec1 1cfd 2ec1 3cb9 2ec1
000002d0: c6ae 2ec1 397e 2fc1 ab16 2fc1 3d51 2fc1
000002e0: 06f9 2ec1 fb72 2fc1 58da 2ec1 7d92 2ec1
000002f0: 5dc4 2ec1 1d55 2fc1 8de4 2ec1 521a 2fc1
00000300: 9d77 2fc1 f41b 2fc1 38fe 2ec1 32c3 2ec1
00000310: f7e8 2ec1 cf4e 2fc1 9726 2fc1 38cc 2ec1
00000320: ad08 2fc1 17cf 2ec1 2535 2fc1 1239 2fc1
00000330: d9fe 2ec1 4b53 2fc1 92f3 2ec1 1813 2fc1
00000340: 6a56 2fc1 ea88 2ec1 6867 2fc1 941b 2fc1
00000350: dfa5 2ec1 0a22 2fc1 3fae 2ec1 e373 2fc1
00000360: 072b 2fc1 144b 2fc1 8df2 2ec1 f93f 2fc1
00000370: 89e4 2ec1 2b12 2fc1 a02b 2fc1 cc4b 2fc1
00000380: aead 2ec1 3135 2fc1 5162 2fc1 4757 2fc1
00000390: 98d5 2ec1 e2a2 2ec1 9541 2fc1 d12b 2fc1
000003a0: fc06 2fc1 bfc1 2ec1 a4f1 2ec1 b6a3 2ec1
000003b0: 0317 2fc1 e7de 2ec1 84c5 2ec1 7008 2fc1
000003c0: 3f5c 2fc1 8261 2fc1 1c39 2fc1 ba2b 2fc1
000003d0: e5c0 2ec1 cdce 2ec1 bb6b 2fc1 a898 2ec1
000003e0: 8f12 2fc1 cf70 2fc1 4c63 2fc1 cb69 2fc1
000003f0: 9d0f 2fc1 799e 2ec1 63dd 2ec1 6627 2fc1
-10.934343 -10.935548 -10.94754 -10.949756 -10.939576 -10.958132 -10.928184 -10.968726
-10.94019 -10.955559 -10.917316 -10.9350395 -10.965269 -10.916432 -10.963425 -10.966006
-10.948725 -10.933344 -10.968843 -10.961303 -10.934452 -10.957492 -10.9516945 -10.929185
-10.954155 -10.94218 -10.956523 -10.951044 -10.929398 -10.937933 -10.923767 -10.927385
-10.9624195 -10.941024 -10.915739 -10.916002 -10.910733 -10.924514 -10.950144 -10.915447
-10.959306 -10.910212 -10.958048 -10.919069 -10.944707 -10.954267 -10.924905 -10.943109
-10.929391 -10.935717 -10.914353 -10.9499 -10.910225 -10.91775 -10.947655 -10.922074
-10.957286 -10.92397 -10.957002 -10.940689 -10.963465 -10.960546 -10.939284 -10.930669
-10.961173 -10.962894 -10.939204 -10.943566 -10.94417 -10.929421 -10.910455 -10.915908
-10.91534 -10.935791 -10.949327 -10.947582 -10.952672 -10.935577 -10.938761 -10.960906
-10.9659395 -10.920382 -10.921338 -10.929803 -10.911919 -10.925088 -10.937034 -10.931967
-10.916645 -10.941595 -10.933444 -10.934643 -10.927248 -10.945125 -10.946773 -10.959085
-10.947082 -10.935175 -10.919725 -10.941683 -10.944216 -10.923917 -10.930351 -10.914155
-10.938148 -10.946192 -10.933041 -10.929341 -10.927784 -10.9272175 -10.958193 -10.922091
-10.947334 -10.970427 -10.946424 -10.939234 -10.9180155 -10.966574 -10.925145 -10.921918
-10.924995 -10.922255 -10.915528 -10.924163 -10.966512 -10.964145 -10.944676 -10.962591
-10.964249 -10.967821 -10.938896 -10.938848 -10.930102 -10.94395 -10.963652 -10.9577055
-10.958627 -10.9380455 -10.93387 -10.961166 -10.943441 -10.957265 -10.91536 -10.959883
-10.952185 -10.909472 -10.9232855 -10.932146 -10.910041 -10.939337 -10.951597 -10.967007
-10.950561 -10.952675 -10.958828 -10.966178 -10.948303 -10.91632 -10.964067 -10.928248
-10.950471 -10.924868 -10.968745 -10.966935 -10.961829 -10.91257 -10.941287 -10.943194
-10.922698 -10.945501 -10.945995 -10.924377 -10.95226 -10.942344 -10.928589 -10.92472
-10.952273 -10.91088 -10.936794 -10.920223 -10.917669 -10.968316 -10.943034 -10.957334
-10.935797 -10.965571 -10.928307 -10.910764 -10.92294 -10.95828 -10.930799 -10.943926
-10.966702 -10.9443245 -10.937065 -10.922655 -10.931876 -10.95674 -10.946921 -10.924858
-10.939618 -10.925559 -10.950475 -10.951433 -10.937219 -10.957835 -10.934465 -10.942162
-10.958597 -10.908426 -10.962746 -10.944233 -10.915496 -10.94581 -10.917541 -10.965793
-10.948005 -10.95583 -10.9342165 -10.953118 -10.930795 -10.941936 -10.948151 -10.956005
-10.917402 -10.950486 -10.961503 -10.958808 -10.927147 -10.914766 -10.953511 -10.948197
-10.939205 -10.922301 -10.933994 -10.9149685 -10.943118 -10.9294195 -10.923222 -10.93956
-10.960021 -10.961306 -10.951443 -10.948175 -10.922093 -10.925488 -10.963801 -10.91227
-10.942031 -10.965041 -10.961742 -10.963328 -10.941312 -10.91369 -10.9290495 -10.947119

dense_layers.0.bias f4 [128]
00000000: 668e 2ec1 8242 2fc1 9101 2fc1 9d59 2fc1
00000010: 3784 2fc1 0c98 2ec1 75e7 2fc1 b8c7 2ec1
00000020: d266 2fc1 e452 2fc1 7726 2fc1 9f3c 2fc1
00000030: 3a39 2fc1 004f 2fc1 cd43 2fc1 89cc 2ec1
00000040: 6e76 31c1 e195 2ec1 cb44 2fc1 ac4e 2fc1
00000050: 46dd 2fc1 6c35 2fc1 3fc5 2ec1 a570 30c1
00000060: a263 30c1 6923 2ec1 c935 2fc1 913d 2fc1
00000070: f1f4 2ec1 3b9e 2ec1 46c7 2fc1 f31b 2fc1
00000080: cbbb 2ec1 f678 2fc1 3f27 2fc1 0c33 2fc1
00000090: 3eba 30c1 27b6 2ec1 84ad 2ec1 9869 31c1
000000a0: 575e 2fc1 b1a5 2ec1 9ed5 2ec1 05c7 2fc1
000000b0: d414 2fc1 efb9 2ec1 63ad 2ec1 3ec8 2ec1
000000c0: 46b8 30c1 ffe6 2ec1 c2cd 2ec1 b44f 2fc1
000000d0: 8d3d 2fc1 3d00 2fc1 ea90 2ec1 8a7c 2fc1
000000e0: 9a7a 2fc1 f448 2fc1 8f18 2fc1 7cb3 2ec1
000000f0: b7d4 2ec1 15ef 2ec1 0f79 2fc1 60e4 2ec1
00000100: 7029 2fc1 822e 2fc1 59a1 2ec1 4ae5 2ec1
00000110: 2796 2fc1 cc71 2fc1 797e 2fc1 e522 2fc1
00000120: d02f 2fc1 6adc 30c1 5a77 30c1 6e09 2fc1
00000130: 1c1a 2fc1 88d2 2ec1 17ef 2fc1 4473 2fc1
00000140: 2bb2 2ec1 9160 2fc1 0a42 31c1 8ea9 2fc1
00000150: 342d 2fc1 9d4d 2fc1 fb1d 2fc1 6846 2fc1
00000160: 128a 2ec1 3559 2fc1 3802 2fc1 d832 2ec1
00000170: 73db 2ec1 4fcd 2ec1 4d6d 2fc1 e386 31c1
00000180: 4440 2fc1 81c9 30c1 772a 2fc1 963e 2fc1
00000190: f007 2fc1 f67f 31c1 e5b9 2ec1 770d 2fc1
000001a0: f9ed 2dc1 f81a 2fc1 8fe9 2fc1 6fac 2fc1
000001b0: e2a8 2ec1 fd8a 2ec1 e3d7 2ec1 df61 2fc1
000001c0: d3a6 2ec1 8967 2fc1 4a38 2fc1 7979 2fc1
000001d0: b47f 2fc1 7aeb 2ec1 c7fa 2ec1 8596 31c1
000001e0: 3ba0 2ec1 d2b4 2ec1 3c46 2fc1 f03d 2fc1
000001f0: ef0a 2fc1 2ac6 2ec1 ace4 2ec1 9600 2fc1
-10.909765 -10.953737 -10.937882 -10.959378 -10.969779 -10.912121 -10.994008 -10.923759
-10.962603 -10.957737 -10.946891 -10.9523 -10.951471 -10.956787 -10.954053 -10.924935
-11.0914135 -10.911592 -10.954295 -10.956707 -10.991522 -10.950542 -10.923156 -11.027501
-11.024324 -10.883645 -10.950631 -10.952531 -10.9348 -10.9136305 -10.986151 -10.944324
-10.920848 -10.9670315 -10.947082 -10.949963 -11.045469 -10.919471 -10.917362 -11.08828
-10.960532 -10.915452 -10.927153 -10.986089 -10.942585 -10.920394 -10.917331 -10.923887
-11.044989 -10.931396 -10.925234 -10.956959 -10.952527 -10.937558 -10.910379 -10.967905
-10.967432 -10.955311 -10.943496 -10.918819 -10.926932 -10.93337 -10.967055 -10.930756
-10.947617 -10.948854 -10.9143915 -10.930979 -10.974158 -10.965282 -10.968377 -10.946019
-10.949173 -11.053812 -11.029139 -10.939802 -10.943874 -10.926399 -10.995872 -10.965641
-10.918498 -10.961076 -11.078623 -10.978895 -10.948536 -10.956449 -10.944819 -10.954689
-10.908709 -10.959279 -10.938042 -10.887413 -10.928576 -10.925124 -10.964185 -11.095431
-10.95319 -11.049195 -10.947867 -10.95278 -10.939438 -11.09374 -10.920384 -10.940787
-10.870599 -10.944084 -10.994521 -10.979598 -10.916231 -10.908933 -10.927707 -10.961394
-10.915729 -10.962777 -10.951242 -10.967156 -10.9686775 -10.932489 -10.936225 -11.099248
-10.914119 -10.919146 -10.954647 -10.952621 -10.940169 -10.92338 -10.930828 -10.937643
